Section 7 - Part 1 - Deep Q-Learning/checkpoint.pth (torch, 22566 bytes, 6 tensors)

fc1.weight f4 [64, 8]
000000 3f b7 70 bc e8 47 f1 3d d1 ec 13 bf f7 2e 39 3e
       -0.014692127 0.11781293 -0.5778323 0.18084322
000010 96 9f 50 bf 75 06 25 3e cd 9e 9f 3e 77 3f d9 3c
       -0.8149351 0.16115744 0.31175843 0.02651952
000020 36 b1 92 3f 33 6c 2d bf 5b e1 0f 3f ab a5 22 be
       1.146033 -0.67743224 0.5620324 -0.1588351
000030 63 e9 63 3e 93 1e 51 3e 70 1e a0 3e bc 09 e2 3d
       0.22256999 0.2042182 0.31273222 0.11037013
000040 3e a6 8d 3f 62 c7 b0 bc 27 40 c0 3e a7 53 06 3e
       1.1066358 -0.021579448 0.37548944 0.13117848
000050 4f 96 95 3d d1 67 f7 3c b2 eb e6 39 b4 4d 1a 3f
       0.0730406 0.03020087 0.00044044625 0.60274816
000060 6b 75 a2 bf 83 61 9e bf 8b 4a a2 be a5 06 0b bf
       -1.2692083 -1.2373508 -0.31697497 -0.54307014
000070 d8 6d 32 3e 4c 2a 77 3e bf 2c ec 3d 3c e2 36 3e
       0.17424715 0.24137229 0.11531972 0.17859739
000080 c4 cc b1 3e 68 fc 06 3f 4e 29 0d be b2 f2 eb 3e
       0.34726536 0.5272889 -0.13785288 0.460836
000090 aa 0b b8 bd 7f 3c 26 3e b3 d9 31 be 06 ec 21 be
       -0.089866 0.16234015 -0.17368202 -0.15812692
0000a0 d7 b5 07 bf e8 03 24 bf 9c d9 82 3f ce fc dc be
       -0.5301184 -0.6406846 1.0222659 -0.43161625
0000b0 dc 42 b6 3e 23 d7 36 bf 7b 04 16 be 34 c8 e6 3e
       0.35597885 -0.7142202 -0.14650147 0.45074618
0000c0 ed fd 73 3e df af 80 bf 92 92 81 bf fc bb 7c bf
       0.23827334 -1.0053672 -1.0122855 -0.9872434
0000d0 a0 d1 c0 3d 34 c6 03 3e 4c 06 ad 3e 50 b7 88 3e
       0.09414983 0.12868577 0.33793867 0.26702356
0000e0 79 19 1b 3f 1d 17 c0 be 4e ff 81 3f 77 0d 1f bf
       0.60585743 -0.37517634 1.0156038 -0.6212992
0000f0 0e ca 73 be 4c 20 b5 3c a5 07 3d 3e 82 55 14 be
       -0.23807546 0.022110127 0.18459947 -0.14485744
000100 a0 9e e6 3e aa a3 83 bc bf 52 0f 3f f2 03 a4 be
       0.45042896 -0.016069252 0.55985636 -0.3203426
000110 8f b4 a6 bf f4 79 a3 be 74 26 c7 3e a5 6a 00 be
       -1.3023852 -0.3192898 0.38896525 -0.12540682
000120 57 85 ba 3d e0 1d 2a bf 2c e9 33 bf 09 dd e9 be
       0.09107464 -0.66451836 -0.7027767 -0.4567645
000130 a3 04 3c 3f e7 51 fb 3e d0 01 0b 3e 7d 44 f3 3e
       0.73444575 0.49085924 0.1357491 0.4751319
000140 d4 c0 54 bf 5a 25 85 bf f6 f5 b5 be 02 56 60 be
       -0.8310673 -1.0402024 -0.35539216 -0.2190781
000150 3c 5e ca 3e e7 7a bf 3d ef 34 5b 3e 25 02 77 bc
       0.3952502 0.09349614 0.21406911 -0.015076195
000160 85 f7 05 bd b4 7b ca 3e 19 4e cb 3e c1 31 e2 be
       -0.032706756 0.39547503 0.3970802 -0.44178584
000170 7a c9 ce bd a0 64 a6 3f ba 66 32 be 58 08 aa bd
       -0.10097022 1.2999458 -0.17422 -0.08302373
000180 0e af b3 3e 4f a2 b1 3d c1 c2 4b bf bf 16 24 c0
       0.35094494 0.08673536 -0.79594046 -2.5638883
000190 74 62 61 bf 89 10 0c bc 76 43 96 3d 9a 47 04 bf
       -0.8804085 -0.008548864 0.07337086 -0.51671755
0001a0 1f f4 73 bf 1f 13 98 bf 2a 9e 2c bf f0 98 a8 bc
       -0.95294374 -1.1880835 -0.6742884 -0.020580739
0001b0 03 d4 52 3e c5 01 c5 3e 79 35 6c 3e 75 5d 4d 3e
       0.20588689 0.38477913 0.23067273 0.20055182
0001c0 3a 07 87 be f9 e6 52 c0 5a 13 94 bf 03 28 aa 3c
       -0.263727 -3.2953475 -1.1568406 0.020771032
0001d0 ee 7e ac 3d 46 7e 1c bf 69 0e 3e bf df 28 26 be
       0.084226474 -0.6113018 -0.7424074 -0.16226529
0001e0 6d 2c bf 3d ae e6 26 be 9d f4 5b 3f 4f 33 a4 3f
       0.093346454 -0.16298935 0.85920125 1.2828158
0001f0 77 5b 88 bf d4 ac e8 bd f5 fa 36 3e 19 79 cf be
       -1.0652913 -0.11361089 0.1786917 -0.40522078
000200 79 b9 63 3f 7c 1e 38 bf bb c4 95 3f 7f 91 75 be
       0.88954884 -0.71921515 1.1700662 -0.23981284
000210 17 78 62 bf eb 33 de bd b8 04 1e bb 0e 05 06 3e
       -0.8846449 -0.10849746 -0.00241117 0.13087866
000220 33 07 22 bf c1 1e 1d c0 78 a5 96 be ad 8c ca bf
       -0.63292235 -2.455002 -0.29423118 -1.5824181
000230 0a 83 79 bd 5e 7f 13 be 8c 3c e1 3e 6c e0 65 be
       -0.060915984 -0.14404055 0.43991506 -0.22448891
000240 78 31 45 3f 98 ad 21 3f 8a 48 c5 3e 51 01 cb 3f
       0.7702861 0.6315551 0.38531905 1.5859777
000250 bb e1 dd 3d 1c e4 44 be da 0f d7 bd d4 61 c0 bf
       0.1083407 -0.19227642 -0.1050107 -1.5029855
000260 0a 18 22 3f d4 3c 02 c0 d7 a9 a5 3e 8a 75 8c bf
       0.6331793 -2.0349627 0.3235614 -1.097337
000270 e5 2d 34 3e 07 ec 8d bd 3b 32 fb be 20 3e d9 3d
       0.17595632 -0.06929784 -0.4906176 0.106075525
000280 9d 45 34 3e b5 23 42 bf a0 eb 15 be de b5 b3 bf
       0.1760468 -0.75835735 -0.14640665 -1.4039876
000290 84 81 06 3f 57 78 a1 3e 39 53 9d be e8 82 be 3e
       0.52541375 0.31537125 -0.30727556 0.3720925
0002a0 4f 31 bc 3c 97 50 9d bd 0c da 83 3d 0c 5d 74 be
       0.02297273 -0.07681387 0.064380735 -0.2386362
0002b0 7c 39 fc 3f 4f 32 97 be ed 94 72 be b8 1f 40 3d
       1.9705043 -0.2953057 -0.23689623 0.04690525
0002c0 6e 2a 9f be 07 68 3a 3f 90 2c 4c 3f f0 37 18 c0
       -0.3108706 0.72814983 0.79755497 -2.3784142
0002d0 42 6f 17 bf c6 ac ab be c2 25 b0 3c 4d 00 df be
       -0.5915414 -0.33530253 0.02150238 -0.43554917
0002e0 4c 6b 4a 3e 65 c5 67 3f c7 9b fe 3e a6 c0 f8 bf
       0.19767493 0.90535575 0.49728224 -1.9433792
0002f0 21 bc b4 be 80 7c 19 bf e1 90 a5 bd 21 a4 b1 be
       -0.3529978 -0.59955597 -0.08084274 -0.34695533
000300 b4 c6 14 3f 03 b9 71 bd 18 a4 40 3f fd 37 37 be
       0.58115697 -0.05901433 0.7525039 -0.17892452
000310 7e 0f 6d bf b5 ef a1 bc 33 3a 9e 3e 76 55 74 3d
       -0.92601764 -0.019767622 0.30903777 0.059651814
000320 c1 e8 bc 3d b7 fc a9 bd 15 b2 d7 3f f8 96 61 3e
       0.09224082 -0.08300155 1.6851221 0.22030246
000330 18 59 ca be 23 33 6f 3e 2f 0f 84 be 94 91 25 bf
       -0.39521098 0.23359351 -0.25792834 -0.6467526
000340 66 94 02 3f 98 8b 0b be 58 91 7b bc 86 02 94 3f
       0.5100769 -0.1362747 -0.015354477 1.156327
000350 9d cd 79 bd f6 e2 4d bf 3d aa a4 be df 70 3e 3f
       -0.060987104 -0.8042444 -0.32161132 0.7439098
000360 a2 6a 75 3e f1 af 43 c0 ce ff a5 3e 46 29 db bf
       0.23966458 -3.0576136 0.32421726 -1.7121971
000370 b2 df ce be 6a 01 8c 3e 49 75 ca bc 9a 98 05 3d
       -0.4040504 0.2734483 -0.024714129 0.032616235
000380 07 e2 7e 3e 13 ba 4d 3e 2f 8a 5d be 7f d7 2a be
       0.2489091 0.20090513 -0.21634744 -0.16683768
000390 a5 27 51 bc 69 54 8e bf 48 2c 88 bf 45 fd cc 3e
       -0.0127658 -1.111951 -1.0638514 0.4003698
0003a0 1c af e5 3d fa 98 07 3f 72 38 18 3f a8 02 94 bd
       0.1121504 0.529678 0.5946113 -0.07227069
0003b0 44 d9 93 be 81 78 79 bf 47 d5 f1 3d 78 20 cb be
       -0.28876698 -0.974495 0.118082576 -0.3967321
0003c0 b4 f3 82 3f 57 12 8f be 14 5f 04 3f e5 6a 54 bf
       1.0230622 -0.2794368 0.5170758 -0.8297561
0003d0 0f 7b d9 bc 3f fa 55 bd 56 e8 b1 bd 4d 68 a4 bd
       -0.026547937 -0.052240606 -0.08686893 -0.08027706
0003e0 e5 62 21 3e 8e d4 f6 3e 4d af f6 3e 53 e5 52 bf
       0.15760382 0.4820904 0.4818062 -0.8238117
0003f0 c8 72 7a be cc f9 7c bf d5 54 dd 3c 57 21 a6 be
       -0.24457848 -0.9881866 0.02701799 -0.3244731

fc1.bias f4 [64]
000000 47 57 35 3f a5 60 c6 be 53 d8 6a bc 28 f7 9a be
       0.708363 -0.3874561 -0.014333802 -0.3026669
000010 44 61 21 3f 2a e8 bc bd f3 ba 09 3f 56 8a c7 bd
       0.6303904 -0.09223969 0.53800887 -0.09743182
000020 85 f7 91 be 1b 59 ee 3d 2a c0 72 be b0 46 a7 3e
       -0.28509155 0.11638089 -0.23706117 0.32671118
000030 55 71 83 3e cf 03 f1 be f4 95 b7 3e 9b 72 72 3e
       0.25672403 -0.47073218 0.35856593 0.23676531
000040 69 15 3e be 5a a6 44 3e a1 49 91 3e 72 f3 62 be
       -0.18562855 0.19204083 0.28376487 -0.2216318
000050 b6 f2 a0 bd 88 bf 1f 3b 10 86 bc 3e df a4 c3 3e
       -0.078587934 0.0024375636 0.36821032 0.38211724
000060 7e 98 cd be 5a d1 9d 3c 20 10 cd be ef 9d 00 3f
       -0.40155405 0.019264866 -0.40051365 0.5024099
000070 7d dc e2 be fc 65 37 3e f0 e3 1e bd e1 d6 3e 3e
       -0.44308844 0.17909998 -0.038791597 0.18636657
000080 8e 09 19 3e 62 a7 cd bd dc a4 bc 3e cb 65 c9 3e
       0.14945051 -0.10041691 0.36844528 0.39335474
000090 c6 e7 04 3e eb 3f 83 bc 3f 9c c5 3c 40 c1 47 3e
       0.1297904 -0.01602169 0.024122356 0.19507313
0000a0 2c f1 e7 3c a6 43 85 3e 79 f3 40 be ba 4f 16 be
       0.028313242 0.26028174 -0.18842877 -0.14678851
0000b0 08 2b ee 3e 20 f0 85 3e fb 2c 9e 3e 0b d6 f2 3e
       0.46517205 0.26159763 0.30893692 0.47428927
0000c0 50 b3 6c bc 2e 30 c2 3d 38 93 00 3e db e9 c7 be
       -0.014447048 0.09481846 0.1255616 -0.39045605
0000d0 36 88 a9 3e 90 ac 36 be f8 54 68 3e 1a 87 22 be
       0.33111733 -0.17839265 0.22688663 -0.1587185
0000e0 c4 1e 7f be 46 e8 95 3d d6 ef b4 be e0 63 12 bf
       -0.2491408 0.07319693 -0.3533923 -0.5718365
0000f0 81 77 f1 be 37 3a 9b 3e ec e7 26 3e 12 22 07 3d
       -0.47161487 0.30317852 0.16299409 0.032991476

fc2.weight f4 [64, 64]
000000 ef c2 dc 3e 69 c4 fb 3d ea ff a9 3c f7 51 0d bf
       0.43117473 0.12293322 0.020751912 -0.55203193
000010 15 cf 96 3d 18 81 27 3e 7a c4 f9 3e cc 0a 0a 3e
       0.073637165 0.16357839 0.48782712 0.13480681
000020 ce a0 0b bf d2 b2 0d 3f 2a ec 13 be 64 16 5d 3e
       -0.54542243 0.55350983 -0.14445558 0.21590573
000030 52 5d 08 3e 88 da e4 be eb a5 94 3f 0b 7a 66 bd
       0.13316849 -0.44697976 1.1613134 -0.056268733
000040 e3 19 c0 be da 1f 13 3f b2 99 01 be e5 99 95 3d
       -0.3751975 0.57470477 -0.12656286 0.07304744
000050 23 9a 51 3f c1 eb 58 bf 0a 6d 03 be 86 fa bf bd
       0.8187582 -0.8473473 -0.12834564 -0.093739554
000060 fe 35 2b bf 51 b1 37 3f ac 82 5d 3e cd 63 50 3f
       -0.6687926 0.7175494 0.21631879 0.81402284
000070 c4 3c 82 3e d6 42 ca be f7 17 07 bf 6f df a8 be
       0.25436985 -0.39504117 -0.5277094 -0.32982966
000080 ad 60 32 3f 2d 34 8c 3e 4f 6f 1a be 05 db 00 3f
       0.69678766 0.27383557 -0.15081523 0.503342
000090 dd 83 bf bd 4f c1 27 3f 9a 83 64 3e 82 7a b2 be
       -0.09351323 0.6552934 0.22315827 -0.3485909
0000a0 79 e8 27 bd 3b 89 0e be 43 ca ab 3d 4f 88 be 3e
       -0.040993188 -0.13919537 0.08388188 0.3721337
0000b0 a2 7c dd be 82 be 3a bf f8 3c 30 3d 02 60 a1 be
       -0.4325915 -0.7294694 0.043026894 -0.3151856
0000c0 b0 ff 1f bf 2c 17 24 3f 7f f2 4b be c7 07 2a 3f
       -0.62499523 0.6409786 -0.19916724 0.6641812
0000d0 84 1c cf 3d 6f 7d 06 3f 4d e8 0d 3f a8 84 a2 3e
       0.10112861 0.52535146 0.5543259 0.31741834
0000e0 a0 c0 a0 3e 8d 1a 03 3f d9 f9 9f 3e 40 99 16 3a
       0.3139696 0.5121239 0.31245306 0.0005744882
0000f0 04 d8 1f bf ee 23 8f be c8 80 e3 3d 7d 2b 50 3f
       -0.6243899 -0.279571 0.111085474 0.8131636
000100 9b a8 57 bf 2c 51 2c 3f 99 72 e0 3e c3 22 27 3f
       -0.84241647 0.6731136 0.4383743 0.6528742
000110 85 e5 31 bf 5a 2f d3 be 1d 1c a0 3d 34 81 9c 3e
       -0.69490844 -0.41247064 0.07817862 0.30567324
000120 c1 75 a6 3e d0 cb 27 3e 05 d7 00 3f a7 ab ad be
       0.32511714 0.16386342 0.50328094 -0.33920023
000130 7b 4a e5 3e 7f 7b 0e 3f 2a f1 55 3e 05 99 66 3e
       0.44783387 0.5565719 0.20892778 0.2251931
000140 24 3e 17 3f a7 a2 da be 95 e2 22 3d ed 9d 72 3f
       0.59079194 -0.4270222 0.039766867 0.94772226
000150 2e 45 ae 3e 1b d0 de bd 20 d5 df bc 62 ec 84 3e
       0.34037155 -0.10879537 -0.027323306 0.25961596
000160 91 d5 22 3f 84 f8 d8 3d ab 58 bf 3e 0e 15 66 be
       0.63607126 0.105942756 0.37372336 -0.22468969
000170 fd 81 1a 3e af 9d 2e bf fb 6b 11 3f 57 8b 92 bd
       0.15088649 -0.68209356 0.5680539 -0.07155483
000180 29 ed 4b 3d 75 3b 38 bd 67 12 95 3e 26 f5 ac 3d
       0.04978672 -0.044978578 0.29115602 0.08445196
000190 bd c8 82 3e ba 75 0a 3d b3 8b 48 be 7f 98 52 bf
       0.25543776 0.03380368 -0.19584541 -0.8226394
0001a0 c0 63 f6 3e e7 34 3f be c1 c1 39 bf 3c 2b 00 3f
       0.48122978 -0.18672524 -0.7256127 0.5006597
0001b0 d4 f5 8f 3d a4 10 9e 3f a3 57 05 3e 85 b4 20 be
       0.0702931 1.2348828 0.13021712 -0.15693863
0001c0 48 1d 8a be d5 f4 b3 3e 94 f0 eb be 23 f0 ac 3f
       -0.26975465 0.3514773 -0.46081984 1.3510784
0001d0 e8 9d 2e 3e 29 1e 1c 3f fc 58 0e 3f df 4c 6a 3e
       0.17052424 0.6098352 0.5560453 0.22880886
0001e0 62 87 29 3f 27 05 e6 3e a7 51 0f 3f fb 53 08 3f
       0.662222 0.44925806 0.55983967 0.53253144
0001f0 cf fc 02 3f f3 be a7 3e 50 e4 65 be 1f 64 22 be
       0.51167005 0.3276287 -0.22450376 -0.15858506
000200 7c 15 69 bf dd 8c f6 3e 70 1d aa be e7 32 31 bf
       -0.9104841 0.48154345 -0.33225584 -0.69218296
000210 b5 02 64 be 52 82 4b 3f a8 a0 f3 be 4f 98 ca 3e
       -0.22266658 0.7949573 -0.47583508 0.39569327
000220 7d e9 1e 3e 5d 3e a6 bf 55 ef 88 bf 0c 24 03 3f
       0.15518756 -1.2987782 -1.0698038 0.5122688
000230 fc 7d fd bd 19 6d cb bf 5e de d8 be f5 75 5c 3f
       -0.12377545 -1.5892669 -0.42357153 0.8611749
000240 39 57 5d 3d 7c ce 95 3e 16 dc 07 be f9 08 71 bf
       0.05403826 0.29259098 -0.1326755 -0.94154316
000250 6f c0 30 bf 1a 0a 89 3f 27 1c 41 3e 95 59 4c be
       -0.6904363 1.0706208 0.18858396 -0.19956048
000260 ca 72 d7 bd fe f7 f4 bd f5 4e 1c 3e 0f 46 74 3e
       -0.10519941 -0.11961363 0.15264495 0.2385485
000270 c9 31 43 3e a1 f8 b0 3e cb ee 98 3e 3a bf b0 3e
       0.1906196 0.3456469 0.29869685 0.34520894
000280 e5 3f 57 3f 5e 12 24 3e d3 8a fd 3e 78 a0 41 3f
       0.8408187 0.16022632 0.49519977 0.7563548
000290 22 a6 08 3f 61 f5 3b 3f 98 c9 22 bf 3b 97 05 3f
       0.533785 0.73421293 -0.6358886 0.52183884
0002a0 18 2d e7 bd 1a 8f 59 3e 29 1f e8 3e 2f 04 84 bf
       -0.11287898 0.21245995 0.45336273 -1.0313777
0002b0 d4 76 15 3f 84 46 87 bd a8 f2 1a bf 47 54 3f 3f
       0.5838444 -0.06605247 -0.60526514 0.7473797
0002c0 c7 79 4d 3f ae fd 34 3f fc c3 aa 3e b0 b0 53 be
       0.8026394 0.70699584 0.3335265 -0.2067287
0002d0 ae b0 4d bf 91 6d 29 bf fb 42 d8 bf 7d 1f d5 bd
       -0.80347717 -0.6618281 -1.6895441 -0.104063965
0002e0 66 e0 3d bf a8 59 96 be f3 4c 09 3f a9 4a 06 3e
       -0.7417053 -0.29365277 0.5363304 0.13114418
0002f0 44 47 0e be bc 9b 27 3f 29 b9 19 be 26 37 de 3e
       -0.13894373 0.65472007 -0.15012039 0.4340145
000300 59 b2 d9 be b8 24 8c 3f b6 f3 02 3f 35 cc bb 3e
       -0.4251888 1.0948706 0.51153123 0.36679235
000310 71 23 89 be d4 14 07 bf 8a b0 66 3c f7 7a 80 3e
       -0.26784852 -0.52766156 0.014080176 0.25093815
000320 41 f9 f9 3e 45 b0 34 3e 92 2e fc 3e db e6 84 be
       0.48822978 0.17645366 0.4925428 -0.2595738
000330 10 e2 f5 3e 27 80 e9 3e 92 d0 63 bf fd d3 e0 3d
       0.48024035 0.45605585 -0.8899013 0.109779336
000340 2b cc 53 3f b1 e4 dc be f0 99 84 3e 59 1c 7d 3f
       0.8273341 -0.43143228 0.25898695 0.9887138
000350 b1 0b d0 bc 73 bb 15 bf d2 b6 b5 3e 22 57 f0 3e
       -0.0253962 -0.5848915 0.35491043 0.46941477
000360 e4 63 6a 3f 24 98 d1 be c0 35 30 3f ba 44 eb be
       0.9155867 -0.40936387 0.68832016 -0.45950872
000370 27 d7 12 3f 35 f7 98 be 38 16 fa 3e 59 f2 23 3e
       0.57359546 -0.29876104 0.48845077 0.16010417
000380 1b 7f a7 bd 3c 01 05 be f7 98 9e 3e 3d 5f b4 be
       -0.0817854 -0.12988752 0.30976078 -0.3522891
000390 be b4 8c 3e eb ec 85 bf a5 f4 c8 3e ac 10 6a be
       0.27481645 -1.0462927 0.3924915 -0.22857922
0003a0 4e 58 f1 3e 48 8f 07 3e 73 d0 58 bf 53 b2 a4 3e
       0.47137684 0.13238251 -0.8469307 0.321673
0003b0 9b 39 11 3e fa 68 62 3f c5 73 ee 3e 8b e4 4c bc
       0.14182131 0.8844143 0.465727 -0.012505661
0003c0 66 44 2f bf e8 8a 39 be 9a 72 aa be bd d9 86 3f
       -0.6846374 -0.18119395 -0.3329056 1.0535198
0003d0 0a 0a a8 3e ad b2 2f 3f b2 37 a6 3d cf 8d 2b bd
       0.3282016 0.6863201 0.08116092 -0.041883286
0003e0 44 08 02 3f 1b f9 50 3e 24 cc 34 3f fe 77 9d 3e
       0.5079386 0.20407526 0.70623994 0.3075561
0003f0 66 a9 74 3f 7d 58 95 3e 03 70 0b 3e 40 81 90 be
       0.9557098 0.29169074 0.13616948 -0.2822361

fc2.bias f4 [64]
000000 e6 b1 d2 3a 7a 4d b3 be 2c 44 af 3e b3 c6 0e bd
       0.0016074746 -0.35020047 0.342317 -0.034857463
000010 38 8b c5 3b 1a ac 82 ba 44 72 f6 3d 18 76 e5 3e
       0.006028559 -0.0009969503 0.12033513 0.4481666
000020 1c 6a 0f bd 00 df 16 bd ac d5 1e be 8e b5 cc bb
       -0.035013303 -0.036833763 -0.15511197 -0.006247229
000030 c3 ed a2 be f2 be 7f 3c 16 9d 43 bc de 25 06 3e
       -0.31822023 0.01560949 -0.011939308 0.13100383
000040 32 2f 59 3d 80 20 3c bd d4 12 cc bd 45 29 02 bd
       0.053023525 -0.045929432 -0.09964529 -0.03177764
000050 4b 3d 8a bb 7b c7 28 3d 73 de e4 3e ce 3a 39 be
       -0.0042187325 0.041205864 0.44700965 -0.18088838
000060 4a 3b 49 3d 9c 88 12 3e d2 c7 79 bc e0 e5 31 bc
       0.049128808 0.14309925 -0.015245395 -0.010858029
000070 e9 8c 91 3d 32 42 a5 3c 33 d5 c3 3e 87 5a 37 bd
       0.071069546 0.020173166 0.38248596 -0.044764068
000080 1e 0d bf 3d 18 07 75 be fc 00 c6 3e 97 ae 36 3d
       0.09328674 -0.23928487 0.38672626 0.044600096
000090 9f 18 21 bd 2f 9e 7e bd c8 f9 68 bd 2e 92 93 3e
       -0.03933012 -0.062162574 -0.056878835 0.28822464
0000a0 21 eb b2 bd 9a c6 81 bd 0e 33 0b be be 60 04 3e
       -0.087362535 -0.06336708 -0.13593695 0.12927529
0000b0 b5 72 c7 3e d2 02 b6 bc 86 a3 61 be f1 7d cc 3e
       0.38954702 -0.022218142 -0.22035035 0.39939836
0000c0 e5 78 b6 3d a2 c1 f3 3d 06 ac 5c be 9c e8 e7 3e
       0.089097776 0.11902167 -0.21549997 0.45294654
0000d0 39 f3 cf be d7 8a d7 3d 22 80 3b 3e d0 7a b9 3e
       -0.40615252 0.105245285 0.18310598 0.3622651
0000e0 3d ae 7a bd b5 fb 0a be 08 ac ee bd 4c 8c a4 3e
       -0.061201323 -0.13572581 -0.11653906 0.32138288
0000f0 22 07 3a 3f f0 91 60 3c ee 63 26 be c7 5c 40 bd
       0.72667134 0.013706669 -0.16249058 -0.04696348

fc3.weight f4 [4, 64]
000000 9a 8f 46 3f 8b df 3c 3c ec a4 9a 3f 73 0e 5e bf
       0.7756287 0.011527906 1.208158 -0.867408
000010 17 c1 de be 6d 39 9d bd b4 f6 cb be 14 17 ca 3f
       -0.4350669 -0.07676969 -0.39836657 1.5788293
000020 1a 4f 98 3e fb 43 e0 bb 6c 39 5c bf 1a 95 24 bf
       0.2974785 -0.0068440414 -0.8602512 -0.6429001
000030 77 fc 13 bf a1 b2 f2 3f d6 75 39 bf cf e4 33 bf
       -0.57807106 1.8960763 -0.7244543 -0.7027101
000040 c6 4f 82 3f 23 b2 96 be e1 5a ac 3f e6 cf 57 bf
       1.0180595 -0.29432783 1.3465234 -0.843016
000050 9b b3 44 bf 85 2d 8c be 51 31 ef 3f a7 d8 b5 3f
       -0.76836556 -0.2737848 1.8686925 1.4206742
000060 f0 e2 36 bf 62 e6 7e bf f6 63 30 bf 95 8e 3e bf
       -0.7144003 -0.99570286 -0.6890253 -0.7443631
000070 0d a2 37 3e 4e 5e 16 bf 99 94 f5 be 15 ec 55 bf
       0.17932911 -0.5873765 -0.47964934 -0.8356336
000080 86 51 d3 be dd 99 b4 bf 15 ff cb 3f 1c b2 55 bf
       -0.41273135 -1.4109455 1.593722 -0.834749
000090 af a4 3c bf 07 fc 01 bf a0 c7 a3 be 82 f8 14 3e
       -0.7368879 -0.5077519 -0.3198824 0.14547923
0000a0 10 6a f6 3f 66 74 c5 be b3 aa 10 bd 88 80 00 40
       1.9251118 -0.38565367 -0.03531904 2.007845
0000b0 c6 4d 7f 3f a0 15 f5 be 09 1e 40 bf 89 8d ea 3f
       0.9972805 -0.4786806 -0.7504583 1.8324443
0000c0 e3 9e 39 bf 8f 92 19 bf a1 a7 f8 be 86 cb 0c 40
       -0.72508067 -0.59989256 -0.4856539 2.199922
0000d0 c6 00 c2 be 29 2b 5d bf e4 a2 1b bf 01 a2 3f 3f
       -0.37891215 -0.8639398 -0.60795426 0.74856573
0000e0 da 3e e2 be a4 62 b6 be 41 af 25 3e 61 4f 78 bf
       -0.44188577 -0.35622132 0.16180135 -0.9699612
0000f0 92 71 b5 3f ea 13 5c bf 4a f0 e7 bd 79 ba 12 40
       1.4175284 -0.85967886 -0.113251284 2.2926314
000100 d9 b5 ab 3e c4 1d 16 bf 2d ed a1 3f 65 07 16 bf
       0.33537176 -0.5863917 1.2650505 -0.58605033
000110 01 06 ef be 1d 95 a5 3b cc 81 b4 be 30 a5 b6 3f
       -0.46684268 0.005053176 -0.35255277 1.4269161
000120 46 32 19 be b8 56 6c 3f 39 c1 2c bf 37 39 fe be
       -0.14960584 0.9231982 -0.67482334 -0.49653026
000130 49 81 f6 be b4 d4 e9 3f 80 6f 56 bf 7f 12 c1 be
       -0.48145512 1.8268037 -0.83763885 -0.37709424
000140 3a 66 9d 3f 03 fe 42 bf ad 34 5b 3f b1 4a b6 be
       1.2296822 -0.7616884 0.8562725 -0.3560386
000150 62 fd 42 bf 11 b7 35 be ba 87 e3 3f ec 45 0c 40
       -0.7616788 -0.17745616 1.7775795 2.1917677
000160 8c e3 31 bf 7d 13 5d 3f 61 c5 3e bf 02 8d 26 bf
       -0.69487834 0.8635786 -0.74519926 -0.6505891
000170 3d f2 27 bf ed e3 6c bf c9 e1 30 3e 1f bc f2 be
       -0.65604 -0.9253529 0.1727363 -0.4740915
000180 12 30 50 bf f8 8f 59 bf 05 b8 bc 3f 67 84 1d bf
       -0.8132335 -0.84985304 1.4743658 -0.61530155
000190 86 a3 c8 be 49 d4 28 be 07 12 34 bf 77 b1 ec bc
       -0.39187258 -0.1648723 -0.7034001 -0.028893216
0001a0 26 1d 06 40 6c 05 19 bf 62 87 16 3e 80 7f 9c 3f
       2.095529 -0.597739 0.14700082 1.222641
0001b0 c6 dc 17 3f b9 58 24 bf 4a fc ac be 86 49 c1 3f
       0.5932125 -0.6419788 -0.3378623 1.5100563
0001c0 94 7c 5e bf 8a da 3c bf f6 2a 0d bf 62 95 13 40
       -0.8690884 -0.73770964 -0.5514368 2.3059926
0001d0 d9 df 8c be 88 a9 d4 be bc a6 f7 bc 9c 7e a0 3f
       -0.27514532 -0.41535592 -0.030230872 1.2538638
0001e0 63 85 17 bf 85 c1 34 bf 41 61 9d 3e d1 f5 c2 bf
       -0.59187907 -0.7060779 0.3073826 -1.5231267
0001f0 fe d6 a5 3f 0d 31 fc be ec 5f 0c 3d b5 60 1e 40
       1.2956235 -0.49256173 0.034271166 2.4746525
000200 81 c2 a0 3f 59 4e 15 bf b7 f3 12 40 53 55 e2 be
       1.2559358 -0.58322674 2.2961252 -0.44205722
000210 05 61 40 bf 74 a9 63 3d bd dd 2b 3e 21 30 b6 3f
       -0.7514804 0.055581525 0.16783805 1.4233438
000220 b5 54 6d 3f fe 1b 12 3f 2a 0a f0 be f1 21 23 bf
       0.9270738 0.5707396 -0.46882755 -0.63723665
000230 98 6e c5 be 9b 7e 03 40 35 c7 51 bf 44 67 2a bf
       -0.3856094 2.0546024 -0.8194459 -0.6656382
000240 13 a7 a5 3f 1b f4 fe be 03 0d b4 3f b2 e2 23 bf
       1.2941612 -0.49795613 1.4066471 -0.64017785
000250 87 a9 09 bf 7b ee 5f bf d5 ff 7f 3f 57 31 74 3f
       -0.53774303 -0.8747327 0.99999744 0.95387787
000260 94 4e 92 be 46 95 6a bf cd 05 eb be ca 47 85 be
       -0.28575575 -0.91634023 -0.45902863 -0.26031333
000270 ae 21 43 bf 5e d6 05 bf 75 fc f9 be ef e8 0a bf
       -0.76223266 -0.52280223 -0.48825422 -0.5426168
000280 da b8 db be 2d f8 2d 3e 73 6c b8 3f 93 2e 03 bf
       -0.42914468 0.16989203 1.4408096 -0.5124294
000290 7e 8b 16 bf 03 ec 50 bf 25 55 ef be 61 37 7e be
       -0.588066 -0.81610125 -0.46744648 -0.24825813
0002a0 80 e0 08 40 8c e2 b7 be b2 db 8c 3d fb 13 bb 3f
       2.1387024 -0.3591503 0.06877841 1.4615473
0002b0 9f d0 a8 3f 1f 9a 27 bf 81 69 fb be 77 5a b0 3f
       1.3188666 -0.65469545 -0.4910393 1.3777608
0002c0 e9 ba 8f be 6f 12 05 bf df ff 03 bf fe 63 9b 3f
       -0.2807229 -0.5198125 -0.51562303 1.213989
0002d0 6b 22 45 bf 5d db 58 bf 09 55 02 bf de ef 48 3f
       -0.7700564 -0.8470972 -0.50911003 0.7849101
0002e0 f1 9e e7 be 27 9e 41 bf 6e e0 53 bf 72 bb 71 3e
       -0.4523845 -0.75631946 -0.8276433 0.23606661
0002f0 a1 15 fa 3f ca cb ee be 4a db 49 3d cc 96 fb 3f
       1.9537851 -0.46639854 0.049281396 1.9655395
000300 45 68 05 3f e3 bf 96 be f9 28 a4 3f c6 18 1d bf
       0.5211223 -0.29443273 1.2825004 -0.61365926
000310 cd 29 41 bf dd f8 8b 3d f7 4f a5 bf d3 cf d5 3f
       -0.7545441 0.06834576 -1.2915028 1.6704048
000320 01 05 62 3e 3d 5e 2b 3f c0 40 07 bf 51 4a 2d bf
       0.22072221 0.6694067 -0.52833176 -0.6769152
000330 f9 8c 08 bf af ef 01 40 c5 11 98 be 92 97 98 bd
       -0.5334011 2.0302541 -0.29701057 -0.07450785
000340 c1 e1 5f 3f 23 54 20 bf 31 96 49 3f b4 3c 0d bf
       0.8745385 -0.6262838 0.787448 -0.5517075
000350 78 31 db be 72 04 5f bf 63 00 a4 3f 91 71 c3 3f
       -0.4281118 -0.8711616 1.2812618 1.5269033
000360 bf 44 eb be 9c e5 dd 3e 72 64 13 bf d8 57 c8 be
       -0.45950887 0.4333924 -0.5757514 -0.3912952
000370 c2 34 bf be 0f c7 0d bf 1b 33 71 bf 38 01 17 bf
       -0.3734494 -0.55381864 -0.94218606 -0.58986235
000380 3d 64 8c be ee f1 49 be fe 52 e3 3f 4a ce a5 be
       -0.27420226 -0.19721195 1.7759702 -0.3238395
000390 53 97 e9 be b3 18 50 bf 35 c6 12 bf d2 3c 9d 3f
       -0.45623264 -0.8128769 -0.5733369 1.2284186
0003a0 ca 34 05 40 67 75 f1 be cb 7f 9b bd 9c e5 c4 3f
       2.081347 -0.47159883 -0.07592734 1.5382571
0003b0 27 11 06 3e 13 83 2f bf ec e2 5d bf 8f 59 ba 3f
       0.1309248 -0.6855938 -0.8667438 1.4558581
0003c0 95 99 c9 be 63 9b 27 bf 62 74 32 bf 8f 2a 08 40
       -0.39374986 -0.65471476 -0.69708836 2.1275976
0003d0 7d 0e 1b bf a3 94 01 bf e1 17 38 bf 57 08 31 3f
       -0.6056898 -0.50617427 -0.71911436 0.6915335
0003e0 d5 56 29 bf b8 ee ee be f2 a8 35 3f dd bc 82 be
       -0.6614812 -0.46666503 0.70960915 -0.25534716
0003f0 89 61 cf 3f 26 9b 10 bf 7e 85 b9 bd c2 6d 1a 40
       1.620164 -0.5648674 -0.09058665 2.412949

fc3.bias f4 [4]
000000 3c e0 9e 3e e4 c2 46 3e 27 80 f7 3d f6 bc f0 3e
       0.31030452 0.19410282 0.1208499 0.47019166
